…
    model.add(Dense(10,name='dense3'))
    model.add(Dropout(drop_rate, name='drop3'))
    model.add(ELU(name='elu3'))
    
    model.add(Dense(1,activation='tanh',name='output'))

    model.summary()

    # optimmizer = Adam(lr=1e-4, beta_1=0.9, beta_2=0.999, epsilon=1e-08, decay=0.0)
    model.compile(loss='mse', optimizer='adam')

    save_to='model-nvidia-v2.h5'

~~~~~~~~~~~~~~~~~~~~~~~~~~~~~~~~~~~~~~~~~~~~~~~~~~~~~~~~~~~~~~~~~~~~~~~~~~~~~~~~~~~~~~~~~~~~~~~~~~~~~~~~

Layer (type)                 Output Shape              Param #   
=================================================================
norm (Lambda)                (None, 160, 320, 3)       0         
_________________________________________________________________
crop (Cropping2D)            (None, 90, 320, 3)        0         
_________________________________________________________________
conv1 (Conv2D)               (None, 43, 158, 24)       1824      
_________________________________________________________________
conv2 (Conv2D)               (None, 20, 77, 36)        21636     
_________________________________________________________________
conv3 (Conv2D)               (None, 8, 37, 48)         43248     
_________________________________________________________________
conv4 (Conv2D)               (None, 6, 35, 64)         27712     
_________________________________________________________________
conv5 (Conv2D)               (None, 4, 33, 64)         36928     
_________________________________________________________________
flatten (Flatten)            (None, 8448)              0         
_________________________________________________________________
dense1 (Dense)               (None, 100)               844900    
_________________________________________________________________
drop1 (Dropout)              (None, 100)               0         
_________________________________________________________________
elu1 (ELU)                   (None, 100)               0         
_________________________________________________________________
dense2 (Dense)               (None, 50)                5050      
_________________________________________________________________
drop2 (Dropout)              (None, 50)                0         
_________________________________________________________________
elu2 (ELU)                   (None, 50)                0         
_________________________________________________________________
dense3 (Dense)               (None, 10)                510       
_________________________________________________________________
drop3 (Dropout)              (None, 10)                0         
_________________________________________________________________
elu3 (ELU)                   (None, 10)                0         
_________________________________________________________________
output (Dense)               (None, 1)                 11        
=================================================================
Total params: 981,819
Trainable params: 981,819
Non-trainable params: 0
_________________________________________________________________
~~~~~~~~~~~~~~~~~~~~~~~~~~~~~~~~~~~~~~~~~~~~~~~~~~~~~~~~~~~~~~~~~~~~~~~~~~~~~~~~~~~~~~~~~~~~~~~~~~~~~~~~

Epoch 1/100
46/45 [==============================] - 61s 1s/step - loss: 0.1425 - val_loss: 0.0564
…
