…
    model.add(Dense(10,name='dense3'))
    model.add(Dropout(drop_rate, name='drop3'))
    model.add(ELU(name='elu8'))
    
    model.add(Dense(1,name='output'))

    model.summary()

    lr=0.001
    optimizer=Adam(lr=lr)
    model.compile(loss='mse', optimizer=optimizer)

    save_to='model-nvidia-v2-005.h5'
    
~~~~~~~~~~~~~~~~~~~~~~~~~~~~~~~~~~~~~~~~~~~~~~~~~~~~~~~~~~~~~~~~~~~~~~~~~~~~~~~~~~~~

_________________________________________________________________
Layer (type)                 Output Shape              Param #   
=================================================================
norm (Lambda)                (None, 160, 320, 3)       0         
_________________________________________________________________
crop (Cropping2D)            (None, 80, 320, 3)        0         
_________________________________________________________________
resize (Lambda)              (None, 66, 200, 3)        0         
_________________________________________________________________
conv1 (Conv2D)               (None, 31, 98, 24)        1824      
_________________________________________________________________
elu1 (ELU)                   (None, 31, 98, 24)        0         
_________________________________________________________________
conv2 (Conv2D)               (None, 14, 47, 36)        21636     
_________________________________________________________________
elu2 (ELU)                   (None, 14, 47, 36)        0         
_________________________________________________________________
conv3 (Conv2D)               (None, 5, 22, 48)         43248     
_________________________________________________________________
elu3 (ELU)                   (None, 5, 22, 48)         0         
_________________________________________________________________
conv4 (Conv2D)               (None, 3, 20, 64)         27712     
_________________________________________________________________
elu4 (ELU)                   (None, 3, 20, 64)         0         
_________________________________________________________________
conv5 (Conv2D)               (None, 1, 18, 64)         36928     
_________________________________________________________________
elu5 (ELU)                   (None, 1, 18, 64)         0         
_________________________________________________________________
flatten (Flatten)            (None, 1152)              0         
_________________________________________________________________
dense1 (Dense)               (None, 100)               115300    
_________________________________________________________________
drop1 (Dropout)              (None, 100)               0         
_________________________________________________________________
elu6 (ELU)                   (None, 100)               0         
_________________________________________________________________
dense2 (Dense)               (None, 50)                5050      
_________________________________________________________________
drop2 (Dropout)              (None, 50)                0         
_________________________________________________________________
elu7 (ELU)                   (None, 50)                0         
_________________________________________________________________
dense3 (Dense)               (None, 10)                510       
_________________________________________________________________
drop3 (Dropout)              (None, 10)                0         
_________________________________________________________________
elu8 (ELU)                   (None, 10)                0         
_________________________________________________________________
output (Dense)               (None, 1)                 11        
=================================================================
Total params: 252,219
Trainable params: 252,219
Non-trainable params: 0
_________________________________________________________________

~~~~~~~~~~~~~~~~~~~~~~~~~~~~~~~~~~~~~~~~~~~~~~~~~~~~~~~~~~~~~~~~~~~~~~~~~~~~~~~~~~~~

early_stopper=EarlyStopping(patience=5, verbose=1)
checkpointer=ModelCheckpoint(save_to, monitor='val_loss', verbose=1, save_best_only=True)
…
